model2.onnx (onnx, 474015 bytes, 6 tensors)

W f4 [128, 10]
00000000: 75eb f93c 6a35 f1bc a1c2 d33d dd0e 91be
00000010: d02a e8bc 86c1 85be c606 003c 01fe 0abe
00000020: b889 87bd 099a a3be 8bcb f63c 3a9f 3b3e
00000030: 6b95 c83c 78d0 073e e47e 4a3e fd08 92bd
00000040: a583 1fbe 7d80 c7be ba80 653e 3a51 63be
00000050: 60cb dd3d 975a 8f3e 3c0a 7fbe dfb4 2c3e
00000060: 8313 01bf 532d 013e e5ed 3a3e 7566 f3be
00000070: 389e 93bd 0ec9 c5be d0dd f03c c1b3 a33e
00000080: 845a 5f3e c601 64be 09b6 593d 0597 cbbe
00000090: 122f c63d 70b0 2dbb a48a 063e 6864 5ebe
000000a0: 2bb0 bdbe a497 303e 480f adbd 36ed f63e
000000b0: e3f9 e9be 38d6 773d 2b67 e7be a8c1 a4be
000000c0: 5ef8 20bf 6ffd b63c 662b e0be 111e 39be
000000d0: 79b4 afbe 1484 583e d44c 24be 0421 903e
000000e0: 81fe 2e3e f877 613d 8b3c 11ba d114 f4bd
000000f0: 27c4 fd3d 5b7a 393d 9cfa 263e d7a8 58be
00000100: 65a1 abbd 476c e23a b6dd 99bd bdf9 c83d
00000110: 17be 8cbc 32e9 ffbb 508e 1dbe 61f7 52bd
00000120: 8fac c33d 26da d5be 85f9 9b3e 2227 d2bd
00000130: b1ce b0be b39e c13e 7eb7 1f3e 5b8b 2abe
00000140: e598 a9be fd8c 213e 00e4 773e e656 68be
00000150: 759c ebbd 6f9a c03d e753 573e 6b14 78be
00000160: 44c0 78be f471 00be b488 44be a5d1 04be
00000170: b878 2fbe a67a 99bd 3596 34be d58e e13b
00000180: fc4d ad3c 06fd c9bd 543b 423e 8c75 643d
00000190: 477a 2abe 0548 4b3e 363a b33e 89ee 923e
000001a0: d2d5 94be df47 443e cc29 8ebe 7e23 9b3e
000001b0: 4c70 05be 69dc 02bf f702 a3be 6f9c 653e
000001c0: 7bbd 883e 4fb6 703c 943b 83be 174d a7bd
000001d0: ded5 5dbd 2393 c83d 280d 02be 7900 7b3d
000001e0: a2b9 9f3e 05c8 9bbe 69f4 10be ee38 a53d
000001f0: 3c5c 47be 9e4e 22ba 47d8 8439 c994 e83d
00000200: f9e0 9ebe 2775 02be a26e fbbd 69ce d43d
00000210: 0c76 8bbe 1420 123d bb0a bcbe 49da ac3e
00000220: dfb8 60be 6344 c2be 2838 683d 9c61 ae3d
00000230: 5696 5c3e 0adb 0c3e 59dc 8e3e 8641 9d3d
00000240: 8d86 27bf 4945 f0bd ca7c babe 1550 8cbe
00000250: cbab 9bbd aa95 0abd 0ba5 77be 636b 243e
00000260: a66b b8bc 9fc1 0f3d 022f 12bf 8d30 dcbd
00000270: f0fc d23d 0074 a33d 9307 903e a693 2cbe
00000280: 996d 083d ea6f eebe f828 e33d 08e5 14be
00000290: 7c46 bcbd 501a 07bd 722c 60bd e7fd cfbe
000002a0: 30c1 493e 4b0a 233e 384d 99be 4c83 f5bd
000002b0: 5cc4 063e 8ea5 dd3d a835 dcbe 7042 493e
000002c0: 88a5 09bf 9d45 beb9 4546 86bd 8187 d43d
000002d0: 6983 d2bd d08e efbd 6b3f 0fbe 7d15 893e
000002e0: e7fe dbbe a0b3 813e bb80 81be f5be 9b3d
000002f0: 8fc7 433e 4e02 3e3d 2637 063e 815c b8be
00000300: 41e9 e73b cf94 6cbd 6e0d b1be 0833 6c3e
00000310: 093d 0abc 2d83 e7be 6b0f c73d 2ccb 2dbc
00000320: baef 91be 4fcd 253f 0457 853d 9df2 853e
00000330: ac50 d13e 5282 bd3b 002e 77be ed51 17be
00000340: 121c e83d ef20 8fbe aa0f 413e 7eb5 983e
00000350: a6c0 8ebd 9d02 babe 510e babd 23b8 2d3d
00000360: 8e64 893e 4632 763e bf4f 763e 8613 c3be
00000370: 08a4 f2bd 420e 1f3e 0f35 503d a5b9 32bd
00000380: 2d51 dc3d 8e43 ed3d eadf 32be abd6 0abe
00000390: 10ac 903e 4e73 91be 6f22 40bd d1e9 d2bd
000003a0: 59e6 323e cd95 103d 663d 133e eb69 35bd
000003b0: 9d47 f13d 5073 713d 9c7a 743d df3d ddbd
000003c0: 4238 613e adff faba b847 aa3d 9bfc 173d
000003d0: d3e1 a0be 72c3 d73d 74a0 86be 08cc 5bbe
000003e0: db90 a6be dca8 ab3d ef22 a4be 2b69 ff3d
000003f0: 7e22 c63c 2b56 51be 7651 cfbd f9f6 d63d
0.030507782 -0.029444415 0.10339857 -0.28331652 -0.028340727 -0.2612421 0.007814115 -0.13573457
-0.06618065 -0.31953457 0.030126354 0.18322459 0.02448531 0.13263118 0.19774967 -0.07130621
-0.15577562 -0.38965216 0.22412387 -0.22198954 0.10829806 0.27998802 -0.24906248 0.16865872
-0.504204 0.12614946 0.18254812 -0.47539106 -0.07207912 -0.38629955 0.029402643 0.3197308
0.21811873 -0.22266302 0.053152118 -0.39763656 0.09676947 -0.002650287 0.13138825 -0.2171799
-0.37048468 0.17245346 -0.0845018 0.48227853 -0.4569846 0.06050703 -0.45195898 -0.32178998
-0.6287898 0.022337643 -0.4378311 -0.18077876 -0.34317377 0.21144134 -0.16044933 0.2815019
0.17089273 0.05504605 -0.00055403326 -0.11918033 0.12390929 0.045282703 0.16306537 -0.21158157
-0.08380393 0.0017274701 -0.07512991 0.09813259 -0.017180486 -0.0078097815 -0.15386319 -0.05150545
0.09554397 -0.41767997 0.30463806 -0.1026137 -0.34532693 0.3781639 0.1559734 -0.16654722
-0.33124462 0.15776439 0.24208069 -0.22689399 -0.11504451 0.09404456 0.210281 -0.24226539
-0.24292094 -0.1254347 -0.19192773 -0.12970598 -0.17135894 -0.074940965 -0.17635424 0.006883482
0.02115535 -0.098627135 0.18967944 0.055776164 -0.16648208 0.19851692 0.3500535 0.28697613
-0.29069382 0.19168042 -0.27766263 0.30300516 -0.13031119 -0.5111757 -0.318382 0.22422956
0.26707062 0.014691903 -0.25631392 -0.081690006 -0.054159038 0.09793689 -0.12700331 0.061279748
0.31196314 -0.3042604 -0.14155735 0.08067499 -0.19468778 -0.00061915244 0.0002533814 0.113565035
-0.31031016 -0.12740003 -0.12276961 0.10390932 -0.272385 0.035675123 -0.36726937 0.33760288
-0.21945523 -0.379428 0.05669418 0.08514711 0.21541724 0.13755432 0.27902487 0.07678513
-0.65439683 -0.11731965 -0.36423331 -0.27404848 -0.07601126 -0.033834137 -0.24184053 0.1605659
-0.022512268 0.03509676 -0.5710298 -0.10751448 0.1030215 0.079811096 0.2813078 -0.16853198
0.033307645 -0.4656976 0.110917985 -0.14540493 -0.09193131 -0.032984078 -0.054729886 -0.406234
0.19702601 0.15921895 -0.29941726 -0.119879335 0.13160843 0.10822593 -0.43009686 0.1965425
-0.53768206 -0.0003629149 -0.065563716 0.10377408 -0.10278971 -0.11697161 -0.13989036 0.26774207
-0.42967913 0.25332355 -0.25293526 0.076047815 0.19119094 0.046388917 0.13106975 -0.36008075
0.0070773666 -0.057759102 -0.3458056 0.23066342 -0.0084374035 -0.45217267 0.097197376 -0.010607522
-0.2850321 0.647664 0.065107375 0.26161662 0.4088186 0.0057833577 -0.24138641 -0.14777346
0.11333479 -0.27954814 0.18853632 0.29825968 -0.069703385 -0.3633012 -0.09084762 0.042411935
0.2683453 0.24042615 0.24053858 -0.38100833 -0.11847693 0.15532783 0.05083185 -0.043634076
0.107576706 0.11585151 -0.17468229 -0.13558452 0.28256273 -0.28408283 -0.04690784 -0.10298503
0.17470683 0.03529911 0.1437889 -0.044290464 0.11781237 0.05894786 0.059687242 -0.108028166
0.21994117 -0.0019149684 0.083144605 0.037106138 -0.3142229 0.10535325 -0.2629429 -0.2146455
-0.3253239 0.08381817 -0.32057902 0.12471231 0.024186369 -0.20443027 -0.10122959 0.10496325

B f4 [10]
00000000: a51e 82bd cd99 91bd d688 a8ba f5d2 27bd
00000010: d1ca f7b8 7342 a03c 2273 02bd 961a 53bd
00000020: 8db6 ec3d 0ccf 153d
-0.06353501 -0.07109413 -0.0012858163 -0.04097267 -0.00011815655 0.019562935 -0.03184808 -0.051539026
0.11558256 0.03657441

W1 f4 [128, 128]
00000000: 7725 33be 016e e1bd a9d2 b7bc ddf0 363d
00000010: 9f73 53be d8a7 b43d ab2b a13d a4ec 4e3e
00000020: f0d8 85be 6ca8 a4bd 14a6 883e 4776 11be
00000030: 8b87 75bc 334c 12bd b9ba 87be c61c 633e
00000040: bb9f 00be 4712 a4be 6324 643c a428 b6bd
00000050: b074 c3ba 8b11 fd3d 4ada f0bd 3715 48bc
00000060: 7763 cebd f19e d6bb eab4 abbd 4d8e abbd
00000070: 7a9c 3dbd 51ae e33d 86da 55bb 6753 7d3e
00000080: 5ea3 023e d183 80be eaf0 183e b6de 30be
00000090: 76a7 6abd 1ba6 a23c e7b7 d1bd 7343 83be
000000a0: 7493 c4bd 79c5 37bc 3969 82bd 14fc 41be
000000b0: 7687 843d 78db 5b3e 6987 b3bc cca2 f3bd
000000c0: 4f74 983e 2a02 2c3e 9e4a d53d ac37 22bd
000000d0: 94c6 943e f25a c2bd a8b8 88be b321 983d
000000e0: b47e 9ebe d21f 523d 9a00 df3d 8bb3 8d3e
000000f0: a275 a03d deb1 503d 249e b2bd 46f5 53be
00000100: e9ec aa3e b53d 363e fad1 e13d af8b 57be
00000110: 94e9 6d3a e988 ddbb f26d d13d 4baf 00bc
00000120: 48f5 913e dd7b 08bd c1b7 2ebd 44a4 293e
00000130: 69b5 293d 07fd b63d ff4c 43be 1869 52bc
00000140: 5902 3abe 3db7 8d3e 2dc6 483e 2d67 5abe
00000150: 654c d23d 2461 d73d 67bc 3dbe ea37 9f3c
00000160: 2adf a3bc 1eda 123e 5190 a03e de87 edbd
00000170: 64bd 89be ad7e 70bc 6d02 a5bd 7c2b aebc
00000180: 11d6 c33c e339 093e 9c3a 1cbe c999 393c
00000190: 3c12 32bd 3636 e1bc 3341 e13d efe1 eebd
000001a0: cea5 c13d 93cd 3a3e 9963 2fbe 089e c6bd
000001b0: 8cbe dabd f5f6 acbd 6687 bdbd 2ccc a6bc
000001c0: 6d3e 4f3d e4cb 56bd cd93 96be 9700 c9be
000001d0: e8bd cfbd 78a5 0a3e ad69 123e f7fd b1bd
000001e0: 3c19 aa3d 6845 383e d23a 16bd d2b6 f53c
000001f0: f5b6 ae3c 3b57 3a3d 6c45 82be abb6 5b3e
00000200: c011 263e a9ac 8c3d 8a60 a6be 3cb7 993c
00000210: 30e0 cfbd e5de 85be 7859 2cbe 3a6c 653e
00000220: f62a b03d ed97 d6bd 7316 84be 0f8f cb3b
00000230: 60fe 32bd f070 30bd 7269 ff3d 593f 2ebd
00000240: 6894 eb3d ca24 cabd 127f 5abe 8d56 5abe
00000250: 1142 7c3e a31b 153d ba94 f23d 1fcd f2bd
00000260: 8c90 d7bd 2067 313c 12ec cbbd 37c5 4c3e
00000270: ed82 6c3e 40d6 573e 164f cbbc 7c0b afbd
00000280: d8e4 4d3d 2dd5 d53c f55d 53bd 6a5c b7bd
00000290: d3d3 9dbd 6f93 d43c b62e 223c 2677 353d
000002a0: 094a a23d 8e6b e9ba 184c 5d3d 924d 2e3e
000002b0: 55cc b4bd 2152 d03d 0033 2a3e 1470 8e3c
000002c0: 3a25 7f3e 7cd5 b1ba 21f9 bebd 5f29 34be
000002d0: 17f1 e03d dec5 33be 3bc2 48bd 1288 8ebd
000002e0: 46bd 8ebd fd57 c03d 8114 d13d 950e 0ebe
000002f0: 4864 f4bd ed01 373e a34a bf3d da56 fe3d
00000300: c0bb c2bd 418f 903c 9a88 443e 0ab5 babe
00000310: c23e e63c 26b0 443e 11cd a5bd 2666 69be
00000320: 7947 f7bd 5a7e 703e ff52 3b3b 336a 903d
00000330: 38e0 e6bd 0c54 993d 0f1b 043e 2cea f5bd
00000340: 453b d33d 885c 9e3d af9b a4bd c2b5 cf3d
00000350: 4069 003e 0c6a 14be ec68 35be 1a60 c93d
00000360: 9379 d0bc 9d5e 763d 3a97 90be be1f 543e
00000370: 0528 4e3e 8a9c 613c 90bf b43a 89c6 54be
00000380: eef2 133e 12e1 023e 865d 86bc ce7f ddbd
00000390: 20d0 2b3e 40f6 35bc b79f 3b3c 9f0d b93d
000003a0: 0ed7 063e e245 263e 31f0 98be 2ad0 583e
000003b0: ca55 2bbd 9b5c 44bd c650 c1bd c5b6 a73d
000003c0: 5ba4 863d acac 1ebe ddac 5bbc d443 5dbd
000003d0: 6620 2bbe e39c 63bd 2494 103d a3da 5dbb
000003e0: 0309 ba3d e0c7 a43d 7edb b13d 3f7c dd3d
000003f0: e29f 7ebe 93a5 0abe 3247 8dbd adfd 953d
-0.1749476 -0.1100731 -0.022439318 0.0446633 -0.20649575 0.08821076 0.07869657 0.20207459
-0.26142073 -0.080399364 0.26689208 -0.14205275 -0.014985929 -0.0357172 -0.26509646 0.22178945
-0.12560932 -0.32045195 0.013924691 -0.0889447 -0.0014912095 0.12356862 -0.11760385 -0.012212089
-0.10077565 -0.006549709 -0.08384116 -0.08376751 -0.046291806 0.111172326 -0.003263147 0.24738847
0.12757632 -0.25100568 0.14935651 -0.17272457 -0.05728861 0.019854596 -0.10240155 -0.25637397
-0.09598437 -0.011216515 -0.06367726 -0.18943816 0.064711496 0.2147044 -0.021915155 -0.118962854
0.29776236 0.167977 0.10414623 -0.039603874 0.29057753 -0.09490003 -0.26703382 0.074283026
-0.30956042 0.051299877 0.108887866 0.27676043 0.07834937 0.050950877 -0.08721569 -0.20699033
0.33383873 0.17796977 0.11026378 -0.21049379 0.00090756384 -0.0067607057 0.102260485 -0.007854293
0.28507447 -0.03332125 -0.04265571 0.16566569 0.04143277 0.0893498 -0.1907234 -0.012842439
-0.18164958 0.27678862 0.19606848 -0.21328421 0.10268477 0.10516575 -0.18528901 0.019435842
-0.020003874 0.14341018 0.31360105 -0.1159818 -0.26902306 -0.014678639 -0.08057103 -0.02126097
0.023905786 0.13400988 -0.15256733 0.011328169 -0.04347442 -0.02749167 0.10998764 -0.11664187
0.09455453 0.18242483 -0.17127837 -0.09698111 -0.10680875 -0.08445541 -0.09254341 -0.020361029
0.050596643 -0.05244054 -0.29409638 -0.39258263 -0.101436436 0.13539684 0.14298125 -0.08691018
0.08305594 0.17995226 -0.03667719 0.029994402 0.021327475 0.045493346 -0.2544359 0.21456401
0.16217709 0.0686887 -0.32495528 0.01876413 -0.10150182 -0.26146618 -0.16831005 0.22404566
0.08601944 -0.10478196 -0.25798377 0.0062121223 -0.043699622 -0.043076456 0.12471284 -0.04254088
0.115029156 -0.09870298 -0.21337536 -0.21322079 0.24634577 0.03640331 0.118447736 -0.1185553
-0.10525617 0.01082781 -0.09957136 0.19997106 0.23096819 0.21077824 -0.024817985 -0.08547112
0.05026707 0.026102627 -0.051603276 -0.089531735 -0.07706418 0.025949208 0.009898832 0.044303082
0.07924277 -0.0017808543 0.054027647 0.17021778 -0.08828036 0.10171915 0.16621017 0.017387427
0.24916545 -0.0013567652 -0.09324861 -0.17593907 0.10983484 -0.17555949 -0.049013358 -0.06959547
-0.06969695 0.093917824 0.10208989 -0.1387275 -0.1193319 0.17871828 0.09340408 0.12418909
-0.09508467 0.017646434 0.19192734 -0.36466247 0.028106097 0.1920782 -0.08095754 -0.22792873
-0.12074179 0.234857 0.0028583405 0.07051506 -0.11273235 0.07486734 0.12900947 -0.12007555
0.10314039 0.07732493 -0.08037507 0.101420894 0.1254015 -0.14493579 -0.17715806 0.09832783
-0.025448596 0.060148824 -0.28240377 0.20715234 0.20132454 0.013770232 0.001379 -0.2077886
0.14448139 0.1278117 -0.016402017 -0.108153924 0.16778612 -0.011106074 0.011451653 0.09035801
0.13167974 0.16237596 -0.29870752 0.21173158 -0.04182986 -0.047939878 -0.094392344 0.081891574
0.06574317 -0.15495557 -0.013407913 -0.054019764 -0.16711578 -0.05556954 0.035297528 -0.0033852241
0.0908375 0.08045936 0.08684443 0.10814714 -0.24865678 -0.13539724 -0.06898345 0.073237754

B1 f4 [128]
00000000: 5cc0 7cbc e1ea 373d 47f3 ed3c a307 62ba
00000010: 5610 13bb dd40 483c ec6c f6bc 0187 813d
00000020: 7759 c33c f7a7 a7bc 1f15 2fbd de07 2ebd
00000030: f235 753c f52b 64bc 2ef8 843c 04d8 9a3d
00000040: 48c0 263e c218 fc3c fb64 9d3d 0fb1 ed3d
00000050: fa2f a93d 7b35 54bc 6283 aa3d 394f 9cbc
00000060: c894 39bc e7fd 5abd c6ba 9e3d f9ab d73d
00000070: ce1c bfbc 4ede a83d ce06 1fbd b4bb bb3d
00000080: d12a e23c e429 033e 60bd 163e c2ab 1e3c
00000090: b2db 083e 6103 c03d 8c1c 213e 877e 4f3d
000000a0: 6dfa cebc f1b0 8d3c 1c81 f23d b5c5 aabd
000000b0: ba21 b53c 8f63 fc3c b844 d3bc 1edc 013e
000000c0: f69c 3c3d 00d4 32ba 2bc4 e13d f59f a13c
000000d0: e3f0 0e3d fc66 083c 7aab 81bb 54d2 d83d
000000e0: 9ea7 b73c 935b ce3b d9da ac3c 13ad 8ebc
000000f0: eea9 8abc 2902 9dbb 2263 a33c fd07 7bbb
00000100: 46f9 e73b c086 77bb 1313 6dbd 14f8 e5bc
00000110: 5ca5 5c3d 765b 0c3d 7fd8 19bc 3061 c83d
00000120: e821 a33d 29f3 763c b6d0 313d 9ac7 b13b
00000130: 554d cb3d f083 2ebc 87a8 9fbd 2fa6 dd3d
00000140: 8761 20bc 7d68 eb3d b0d6 8a3d 48f5 3abd
00000150: 0180 2dbd 3435 983d 16f0 193e ca40 9f3d
00000160: a38e 5b3d affc 0cbd 1e8e 07bd a785 d4bb
00000170: 78ab 0abb 2ecb cc3d d9cb de3d d6ec 0f3e
00000180: c67a 2b3d 90e4 313d 0a98 ae3c 7b37 d83c
00000190: a182 e23a d708 8a3c 76f1 233e 8704 893b
000001a0: 3206 073e 0104 843d ba55 923d e564 423d
000001b0: 89ea fd3c 85a8 fabb 112c cc3c bf32 cc3d
000001c0: 21a8 6c3c 0f88 b53c 5420 5a3c 0fb4 44bd
000001d0: f273 973d 371d b83d 382d 993d 6f90 17bd
000001e0: 43f6 d33c c3a2 d3bb 60e5 373d 26dd bf3d
000001f0: bb83 3dbc 64bf 2e3c 50ce 943c da1f 443d
-0.015426721 0.044901732 0.029046668 -0.0008622354 -0.0022440157 0.012222496 -0.030081235 0.06324578
0.023846371 -0.020465834 -0.042744752 -0.04248797 0.014966475 -0.013926496 0.016231623 0.07560733
0.16284287 0.030773524 0.07685276 0.11606037 0.08261104 -0.012952204 0.083258405 -0.019080745
-0.011326976 -0.053464796 0.07750468 0.10530848 -0.023329165 0.08245526 -0.03882485 0.09166661
0.027608307 0.12808949 0.14720678 0.009684505 0.13365057 0.093756445 0.15733546 0.050657775
-0.025265897 0.017296286 0.11841032 -0.08338491 0.022110809 0.030809192 -0.025789604 0.12681624
0.046048127 -0.00068217516 0.11023744 0.019729594 0.034897696 0.008325335 -0.003957209 0.10586992
0.022418793 0.0062975376 0.021100448 -0.017416513 -0.016926732 -0.0047915173 0.019944731 -0.0038304322
0.0070792763 -0.0037769526 -0.05787952 -0.028072394 0.053868636 0.03426691 -0.009389996 0.09784162
0.079654515 0.015072622 0.043411933 0.0054254057 0.09926859 -0.010651574 -0.07795816 0.10822713
-0.009788877 0.11494539 0.0677923 -0.045644075 -0.042358402 0.07432023 0.15032992 0.077760294
0.053602826 -0.034420665 -0.033094518 -0.006485659 -0.0021159332 0.09999691 0.108787246 0.1405519
0.041865133 0.043430865 0.021312732 0.026393643 0.0017281362 0.016849918 0.16010079 0.004181448
0.13185957 0.06446076 0.07145257 0.0474595 0.030995624 -0.0076494836 0.024923356 0.099706165
0.014444382 0.022159604 0.013313372 -0.04802328 0.07395162 0.08989947 0.07479328 -0.037002977
0.025874263 -0.0064586117 0.044896483 0.093683526 -0.0115670515 0.010665748 0.018164784 0.04788194

W2 f4 [784, 128]
00000000: 2a0c 553d d02e 523c dc15 e9bc a4cd 7fbd
00000010: 2023 2b3b 9058 8f3b d0fb 17bd a09d 043c
00000020: 2ca9 b6bc bdde 843d c6d3 5cbd 0a28 633d
00000030: 0aa6 49bd 20ac 12bb 8213 6cbd 3f09 86bd
00000040: ee0c 743d b453 153d 0816 90bc 554d 2abd
00000050: 6706 15bd 6689 003d e468 52bd 4822 333c
00000060: 4315 a53d e2a3 76bd 6272 85bd 7bf2 9dbd
00000070: 3dbc 883d 4664 81bd e33a 8f3d 2006 df3b
00000080: 2cca bf3c 4e7e 19bd e28c a0bd b84f a2bd
00000090: b5c5 9f3d fc76 b23c 758f 983d 4847 23bc
000000a0: b0bf 623c 61ea 43bd 8bbf 91bd bcae ed3c
000000b0: 1447 6dbd 6a22 70bd 7f52 7fbd 0294 88bd
000000c0: 8c0e 4dbd 319c 863d 79bb 5bbd 2bad 99bd
000000d0: aea3 213d 24de 163d dc7e 93bd 203c 263c
000000e0: 3474 3cbd 8228 9fbc eb42 9c3d ad7e 9fbd
000000f0: 24df 9b3c bc5b bd3c c029 e53a 4abe c5bc
00000100: 8893 27bc 80d8 90bd c890 82bd 33e9 9b3d
00000110: 30ce 533c 2c5d 87bc 608b 3d3b 32e9 45bd
00000120: 0099 0e3a 7a72 223d ebd2 14bd b703 823d
00000130: d29c 713d 2a86 a9bc c134 55bd d84f ad3c
00000140: fa33 143d 830d 8c3d fae4 7ebd 67c2 a53d
00000150: ff7a 833d 701b 91bb f8e5 8cbc 7000 73bc
00000160: dab2 babc d04d 873b 908b 63bd 68ba 40bd
00000170: b0d6 7bbc c09f 86bb 6204 1abd 68a7 5f3c
00000180: cb12 a2bd 00b4 dcb8 634c 3abd 2224 5dbd
00000190: 0800 f83c c09e 9e3b 40c8 27bc 8c7e ddbc
000001a0: ddd2 903d fac4 4cbd 66d4 673d a45f 063d
000001b0: b8bb b0bc a9ed 963d 8edc 273d 019d 873d
000001c0: f2a8 5f3d 34fb 65bd 083e b3bc 6852 80bc
000001d0: aaf8 7e3d 9286 4a3d c0b4 e13c 866a a2bd
000001e0: fa2c 7abd aef5 6bbd 087d 133d c8ea 71bc
000001f0: 8583 2bbd 9210 663d 4ced b13c 0c33 3bbd
00000200: ae59 1c3d b259 383d d2b1 89bd 9e6a 083d
00000210: 3b04 79bd 83d3 a03d cf6b 88bd ef7b 863d
00000220: a578 953d d214 393d 5131 45bd 7c18 54bd
00000230: 5060 a0bd f9df 90bd 22e9 473d b221 3a3d
00000240: 78d3 84bc 6fc3 873d bcf4 30bd 3417 1ebd
00000250: a949 9d3d e1e4 9c3d 94f3 0f3d a021 bb3b
00000260: 74bd e53c 5850 95bd 8c72 b33c 100b 86bd
00000270: e04c 87bc 5d99 903d a692 4d3d aaa4 26bd
00000280: d0af 3f3c d49c bd3c 2a3c 4b3d 2337 13bd
00000290: 6e23 ccbc 40f8 d33a 0b62 863d c67f 90bd
000002a0: a23a dfbc c16d 81bd b6ab 573d 2903 893d
000002b0: 693b 3dbd 185d 9dbc 5047 153d 228f 2abd
000002c0: ce49 313d 38df 1c3c e0ef 13bb 7be7 933d
000002d0: 4c91 f53c fea0 4c3d 32c6 45bd f097 52bc
000002e0: 7e03 483d d0eb 253d e360 8c3d 3b13 09bd
000002f0: 823d 66bd b739 9e3d 4a15 393d 6013 0bbb
00000300: c999 94bd f80c 483c 001c 733c c0b3 d5bc
00000310: 40e9 65bc eebb 68bd 4b5e 91bd 1c58 89bc
00000320: 3fc1 9b3d f0e7 1e3c bce7 45bd e026 9a3c
00000330: 896d 44bd cc80 9abd 68f9 1c3d c6d5 17bd
00000340: 402a b0ba df8d 26bd 5480 d23c b155 803d
00000350: 5991 89bd 60ac e33c 0059 4bbc 7374 a0bd
00000360: a60a 4f3d 98d6 54bc e8a2 03bc f144 9d3d
00000370: d856 4a3c 50e7 5a3c 7bd7 11bd e9ad a23d
00000380: aa4e 1e3d ef1c 56bd e03b 6cbb 210a 923d
00000390: 5839 2dbc 1e46 6bbd 88ce 73bc b973 8b3d
000003a0: b867 163d a97c 1cbd 6642 38bd bd22 863d
000003b0: a439 0e3d 957d a33d 612c 863d 9385 90bd
000003c0: 407a cfbc 4a89 ffbc 725a 023d be30 6bbd
000003d0: e6cb b0bc 8842 5cbc b8ae 593c 6456 f93c
000003e0: 6444 8abd 3c2b 1d3d e41d ef3c 50fe 023d
000003f0: 8cf4 273d 804d 62bb 302b 133c 806f dc3b
0.052013554 0.012828544 -0.028452806 -0.062451974 0.0026113465 0.004374571 -0.03710538 0.008094221
-0.022297464 0.064877965 -0.0539129 0.055458106 -0.049230613 -0.0022380427 -0.05763579 -0.06544732
0.059582643 0.03645678 -0.01758863 -0.041577656 -0.03638306 0.031381033 -0.051369563 0.010933466
0.08060696 -0.060214885 -0.065159574 -0.07712265 0.066765286 -0.06317954 0.069936536 0.00680615
0.023411833 -0.03747397 -0.07839371 -0.079253614 0.078013815 0.021785252 0.07449237 -0.009965725
0.013839647 -0.047830943 -0.07116612 0.029013984 -0.057929114 -0.05862657 -0.062334534 -0.06668855
-0.0500627 0.0657276 -0.053645585 -0.07503732 0.039462738 0.036832944 -0.07201931 0.010146171
-0.046009257 -0.019428495 0.07629951 -0.07787833 0.0190273 0.023115031 0.0017483756 -0.024138588
-0.010228045 -0.07072544 -0.06375271 0.076128386 0.012927577 -0.01652392 0.0028922185 -0.048318096
0.0005439669 0.039659955 -0.03633396 0.06348365 0.058987446 -0.020693857 -0.052052263 0.021156237
0.03618238 0.06838515 -0.062230088 0.0809372 0.06419944 -0.0044283196 -0.017199501 -0.014831647
-0.022790361 0.004129149 -0.05555302 -0.04705277 -0.01537101 -0.004108399 -0.037601836 0.013650753
-0.07913741 -0.00010523945 -0.045483004 -0.053989537 0.030273452 0.004840702 -0.010240614 -0.027037881
0.07071469 -0.04999254 0.056599043 0.032806054 -0.021573886 0.07369549 0.04098182 0.06621743
0.05460448 -0.05614777 -0.021880165 -0.015664294 0.062248863 0.049444743 0.027552009 -0.07930474
-0.06107805 -0.057607345 0.03600791 -0.014765449 -0.041873474 0.056168146 0.021719597 -0.04570298
0.038171463 0.045007415 -0.0672337 0.033304803 -0.06079505 0.07852843 -0.06661188 0.06566607
0.07298402 0.04518587 -0.048142735 -0.051781163 -0.0783087 -0.070739694 0.048806317 0.04544229
-0.016214117 0.06629073 -0.043202147 -0.038596347 0.07680065 0.07660843 0.035144404 0.0057107955
0.02804444 -0.07290715 0.021905206 -0.06545079 -0.016516149 0.07060502 0.050188683 -0.04068438
0.011699632 0.02314607 0.049617924 -0.035941254 -0.024919238 0.0016172007 0.06561669 -0.07055621
-0.027249638 -0.06319762 0.05265399 0.06690056 -0.046199236 -0.01920943 0.036444962 -0.04164041
0.043283276 0.009574704 -0.0022573397 0.07221886 0.02997651 0.04995822 -0.048284717 -0.012853608
0.048831455 0.04050809 0.06854417 -0.033465605 -0.056211002 0.07725852 0.04518632 -0.0021221265
-0.07255895 0.012210123 0.014838219 -0.026086688 -0.014032662 -0.05681985 -0.07098063 -0.016765647
0.07605218 0.009698853 -0.048316702 0.018817365 -0.047956023 -0.07544097 0.03832379 -0.037069105
-0.0013440326 -0.040662643 0.025695957 0.06266344 -0.06717176 0.027792156 -0.012411356 -0.07834711
0.050547265 -0.012990616 -0.008034445 0.07679165 0.012349807 0.013360813 -0.03560589 0.07943327
0.03864924 -0.052273687 -0.003604643 0.07130838 -0.010572754 -0.057439916 -0.014880784 0.06809182
0.036720008 -0.038204823 -0.044985197 0.065495946 0.03472294 0.07982937 0.06551433 -0.07056727
-0.025326848 -0.031193394 0.031824537 -0.05741953 -0.021581601 -0.013443597 0.013286285 0.030436702
-0.06751326 0.03837131 0.029189058 0.031980813 0.041004702 -0.0034531057 0.008982465 0.006727159

B2 f4 [128]
00000000: bd00 99bc 8c67 7f3c 8f77 cebd fe3b 933c
00000010: 7415 a03d a82b a4bc b49e 863d 9cb2 6e3d
00000020: 0057 8d3d 0872 273e c394 a3bc 9ab1 2f3c
00000030: 44aa 193d dcf3 853c 6e0e 07bd a6ce 993d
00000040: d66b 84bc 4de2 25bd b95a d63c 98a5 8d3d
00000050: d55a e23d 1961 a63c edfc 8bbb 588d 983d
00000060: 0a2f fd3b 9794 37bc 69be 803d a62e 593b
00000070: 24e6 2f3d f6a7 833b 67e3 6d3c f404 ebbd
00000080: c8b2 053e d81c 9cbd c2f9 8e3d 3e53 2d3e
00000090: 344b 193d 27b8 1f3d 339e c93b c409 123d
000000a0: 380c 343d f93d b8bb 7e2b 35bc 2fce e13b
000000b0: a3ba 1b3d f824 95bb 66e7 073b 28a1 403c
000000c0: cd9f e93d fe7d b43d 37ae cb3c 853a 843d
000000d0: 62e6 df3d b6ac e5bc 81d1 a1bd 44ec f2b9
000000e0: 6801 bc3d 7ce3 6fbc 199b acbc 700b 263c
000000f0: 7c38 db3d 39f3 8f3c 71ce 1abb 6423 23bd
00000100: 1d68 f43b a496 6c3d 0502 d23d 6e1f ce3a
00000110: 12d8 2bbc 8121 60bd 4d77 373d 0161 6ebc
00000120: 1208 be3d c770 c53d 13b9 13bd c057 5d3c
00000130: 02b6 b13d b882 a9bc 9a1b 163d 7c45 3bbd
00000140: 87da 763d 42eb 723d 2cfe 3f3d 5024 d73d
00000150: b83a 103e ad52 5abc 9249 cc3c ec94 7bbc
00000160: 5ad5 d0bc f53e 333d ba21 30bc cf44 9dbd
00000170: 8d27 0a3e 1293 b1bd 14b6 08ba 442c 883d
00000180: 8cc0 a3bc 8785 333c 162e ebbd 7787 2e3d
00000190: e736 28bd bda4 ce3d 6012 acbd d9ac 363c
000001a0: d317 f93d 4892 4e3c 5780 fc3b 2d9b 733d
000001b0: e2c0 943d d684 953d 5289 2ebd acee a43d
000001c0: 5c69 91bd 2af6 7e3d 30b7 8c3d 84e8 7fbc
000001d0: 924b 063e 10c4 e1bc 93d9 9c3d 51b9 56bd
000001e0: ffab cd3d 5287 d83d 96c1 f63c ee3d 55bc
000001f0: 566e 44bd fed9 643d 1b24 d1bc 194c 913c
-0.01867711 0.015588652 -0.10081398 0.017972942 0.07816592 -0.020040348 0.06573239 0.058275804
0.069013596 0.16352093 -0.019968396 0.010723496 0.037515894 0.016351633 -0.032972746 0.07510118
-0.016164701 -0.04049902 0.026166307 0.0691635 0.11052481 0.020309972 -0.0042720945 0.07448834
0.0077265548 -0.01120486 0.06286318 0.0033139377 0.04294409 0.0040178252 0.014519549 -0.11475554
0.13056481 -0.07622689 0.06981231 0.16926286 0.037425235 0.03899398 0.006152892 0.035653844
0.043956965 -0.005622622 -0.011057733 0.006891034 0.038019788 -0.004551526 0.002073729 0.011757173
0.11407433 0.088130936 0.024863346 0.06456474 0.10932614 -0.028036457 -0.07901288 -0.00046333869
0.09179956 -0.014641639 -0.02107005 0.010134563 0.10704133 0.017572032 -0.0023621584 -0.039828673
0.0074587003 0.05776085 0.102542914 0.001572592 -0.010488527 -0.05471945 0.04479151 -0.014549495
0.09278883 0.09640651 -0.036065172 0.013509691 0.08677293 -0.020692214 0.036647417 -0.045720562
0.060266998 0.05930639 0.046873257 0.10504973 0.140849 -0.0133253755 0.024937425 -0.01535533
-0.025492359 0.043761212 -0.010750229 -0.0767914 0.1349165 -0.086706296 -0.000521512 0.06649068
-0.019989274 0.010957128 -0.114833996 0.042609658 -0.041067984 0.10090015 -0.08401942 0.0111496085
0.12162747 0.012608118 0.007705729 0.05947416 0.07263352 0.07300727 -0.042611428 0.080533355
-0.07100174 0.06224648 0.06870878 -0.015619401 0.13114765 -0.02755931 0.076586865 -0.052422825
0.10042571 0.10572685 0.030121606 -0.0130152535 -0.047956787 0.055871956 -0.025529912 0.017736482
