Machine Learning/Machine_Learning/model1.onnx (onnx, 31842 bytes, 2 tensors)

W f4 [784, 10]
000000 92 54 64 3d a0 42 61 3c 3e ce f9 bc 9c 13 89 bd
       0.055744715 0.013748795 -0.030493852 -0.06693193
000010 e0 69 37 3b 00 a1 99 3b d7 e2 22 bd f8 20 0e 3c
       0.002798669 0.004688382 -0.039767113 0.008674853
000020 90 c3 c3 bc c3 66 8e 3d 0b ab 6c bd 8a 73 73 3d
       -0.023896962 0.06953194 -0.057780307 0.05943636
000030 1d 1d 58 bd a0 31 1d bb d0 02 7d bd b0 a6 8f bd
       -0.05276214 -0.0023985878 -0.06177026 -0.07014215
000040 55 c7 82 3d f2 09 20 3d 08 6c 9a bc c2 84 36 bd
       0.06385676 0.039071985 -0.018850341 -0.0445602
000050 19 b7 1f bd d8 c1 09 3d db 80 61 bd e8 fb 3f 3c
       -0.038992975 0.03363213 -0.055054527 0.011717774
000060 d9 ec b0 3d 97 2a 84 bd 00 05 8f bd 06 47 a9 bd
       0.08638925 -0.06453436 -0.069833755 -0.082655
000070 3f 8b 92 3d 6d ac 8a bd 29 81 99 3d c0 05 ef 3b
       0.07155465 -0.06771169 0.074953385 0.0072943866
000080 34 8c cd 3c 0f 81 24 bd 3b 11 ac bd 68 f4 ad bd
       0.025091268 -0.040162142 -0.08401724 -0.084938824
000090 c5 3b ab 3d 50 44 bf 3c 13 81 a3 3d b8 fd 2e bc
       0.083610095 0.023348004 0.07983603 -0.010680608
0000a0 b8 03 73 3c 2d f8 51 bd 11 34 9c bd 8c bb fe 3c
       0.01483243 -0.05126207 -0.076271184 0.031095289
0000b0 72 4c 7e bd 1f ae 80 bd 9e d1 88 bd 21 60 92 bd
       -0.062084623 -0.06283211 -0.06680606 -0.071472414
0000c0 36 c4 5b bd 2b 44 90 3d a3 7e 6b bd 48 b3 a4 bd
       -0.05365392 0.07044252 -0.057493817 -0.08042008
0000d0 06 3c 2d 3d ae b0 21 3d 78 13 9e bd d8 28 32 3c
       0.04229357 0.039475136 -0.07718557 0.010873996
0000e0 f9 f8 49 bd 48 93 aa bc 81 78 a7 3d a3 ef aa bd
       -0.049309704 -0.020822182 0.08177281 -0.08346488
0000f0 94 0d a7 3c 1c f1 ca 3c 00 9a f5 3a a6 ed d3 bc
       0.020392217 0.024773173 0.0018737912 -0.025870156
000100 e8 98 33 bc 72 3c 9b bd 7c ee 8b bd 59 18 a7 3d
       -0.010961749 -0.075798884 -0.06832597 0.08158941
000110 c8 ff 62 3c 00 13 91 bc 20 24 4b 3b a2 1b 54 bd
       0.013854928 -0.017709255 0.0030996874 -0.051784165
000120 80 d3 18 3a a6 19 2e 3d eb 7f 1f bd 4f 57 8b 3d
       0.0005829856 0.04250493 -0.03894035 0.06803762
000130 e5 78 81 3d 4c af b5 bc 12 80 64 bd 8c be b9 3c
       0.06321887 -0.022178315 -0.0557862 0.022673868
000140 96 d5 1e 3d 71 19 96 3d ee 96 88 bd 69 a6 b1 3d
       0.03877791 0.07329071 -0.066694126 0.08674318
000150 81 e9 8c 3d 20 84 9b bb 70 01 97 bc 74 37 82 bc
       0.06880475 -0.004745975 -0.018433303 -0.015895583
000160 64 17 c8 bc 90 02 91 3b 34 de 73 bd ab 8d 4e bd
       -0.024425216 0.0044253543 -0.05953808 -0.050428074
000170 b8 f3 86 bc 00 48 90 bb c1 10 25 bd 98 b2 6f 3c
       -0.016473636 -0.0044031143 -0.04029918 0.014629982
000180 1c b3 ad bd 00 88 ec b8 92 a9 47 bd 2b 01 6d bd
       -0.08481428 -0.00011278689 -0.0487457 -0.057862442
000190 26 e5 04 3d b0 ff a9 3b 68 d1 33 bc 12 62 ed bc
       0.032445095 0.005187951 -0.010975219 -0.028977428
0001a0 67 36 9b 3d 5e 75 5b bd ba 75 78 3d 46 03 10 3d
       0.07578736 -0.053578727 0.060659148 0.03515937
0001b0 40 69 bd bc 51 c1 a1 3d 2a e7 33 3d 69 57 91 3d
       -0.023121476 0.078982 0.043921627 0.0709675
0001c0 3a b4 6f 3d 94 7a 76 bd a4 19 c0 bc e8 86 89 bc
       0.058521487 -0.060175493 -0.023449726 -0.016787961
0001d0 7b a1 88 3d c2 0d 59 3d a0 e5 f1 3c 23 11 ae bd
       0.06671425 0.052991636 0.029528439 -0.08499362
0001e0 ae 10 86 bd 84 e7 7c bd 20 45 1d 3d e6 e1 81 bc
       -0.0654615 -0.061744228 0.038396 -0.015854787
0001f0 3d fc 41 bd de 64 76 3d bd 70 d7 3c a6 a8 48 bd
       -0.047359694 0.06015479 0.026298875 -0.04898896
000200 c7 6b 27 3d 1b ab 44 3d 05 98 93 bd f8 23 12 3d
       0.04087427 0.04801474 -0.0720673 0.035678834
000210 9a b4 85 bd 71 35 ac 3d 64 b3 9d bd 42 ee 8f 3d
       -0.06528588 0.08408631 -0.07700232 0.07027866
000220 5b 9d ad 3d 52 44 46 3d bb b0 53 bd 43 5f 65 bd
       0.08477279 0.048405 -0.051682215 -0.05599905
000230 c7 e4 ab bd a1 47 9b bd f8 9a 57 3d 16 71 47 3d
       -0.08393245 -0.075820215 0.052638024 0.04869183
000240 32 f6 8f bc c8 7d 91 3d f3 ee 3d bd 2d 75 29 bd
       -0.01757345 0.07104069 -0.046370458 -0.041371513
000250 3e 8d a8 3d 0e 1b a8 3d ea 46 1a 3d f5 8b c8 3b
       0.08230065 0.08208285 0.037665285 0.0061202
000260 4b 55 f6 3c 7e 06 a0 bd bf 40 c0 3c bf a8 8f bd
       0.030069968 -0.07813738 0.023468373 -0.07014608
000270 95 07 91 bc ab f8 9a 3d 70 51 5c 3d c0 99 32 bd
       -0.01770381 0.07566961 0.053788602 -0.04360366
000280 f0 6f 4d 3c e0 36 cb 3c 5e d0 59 3d 9a c6 1d bd
       0.012538895 0.02480644 0.05317723 -0.03851948
000290 3a c8 da bc 00 2d e3 3a db 05 90 3d 5c dd 9a bd
       -0.026706804 0.0017332137 0.07032367 -0.07561752
0002a0 02 3e ef bc 96 b6 8a bd 4a 24 67 3d 41 d7 92 3d
       -0.029204372 -0.06773107 0.056431092 0.07169963
0002b0 78 ce 4a bd ec a6 a8 bc aa fc 1f 3d 47 cb 36 bd
       -0.04951331 -0.020587407 0.03905932 -0.044627454
0002c0 86 01 3e 3d 00 20 28 3c a0 8c 1e bb 99 83 9e 3d
       0.04638817 0.010261536 -0.0024192706 0.07739944
0002d0 74 97 03 3d ca 4e 5b 3d 1f f6 53 bd 48 b3 61 bc
       0.03212686 0.053541936 -0.05174839 -0.013775654
0002e0 8a 5c 56 3d ca d2 31 3d cd 72 96 3d 7a e8 12 bd
       0.052334346 0.043413915 0.07346115 -0.03586624
0002f0 a4 c1 76 bd 5d 93 a9 3d 26 5c 46 3d 60 0d 15 bb
       -0.060243264 0.082800604 0.048427723 -0.0022743568
000300 b0 42 9f bd b8 66 56 3c 3c 46 82 3c 2e 08 e5 bc
       -0.077763915 0.0130860135 0.015902631 -0.027958002
000310 58 67 76 bc dc 6d 79 bd d6 cb 9b bd 4c 32 93 bc
       -0.0150392875 -0.060895786 -0.07607238 -0.01796832
000320 87 ed a6 3d 18 4e 2a 3c 11 1a 54 bd b8 35 a5 3c
       0.081507735 0.010394596 -0.05178267 0.020167217
000330 bd 84 52 bd 17 96 a5 bd 16 3c 28 3d 12 ba 22 bd
       -0.05139612 -0.08085268 0.041072927 -0.03972823
000340 40 cd bc ba 79 80 32 bd fc 99 e1 3c 6d 8a 89 3d
       -0.0014404431 -0.043579552 0.027539246 0.06715856
000350 a4 6f 93 bd 5c 01 f4 3c 48 ef 59 bc 0b f7 ab bd
       -0.07199028 0.029785804 -0.013301678 -0.08396729
000360 c2 e4 5d 3d 28 1b 64 bc 48 14 0d bc 09 8d a8 3d
       0.05417324 -0.01392249 -0.008610792 0.08230025
000370 98 da 58 3c 40 9b 6a 3c b8 4d 1c bd 59 59 ae 3d
       0.013235711 0.014319241 -0.038160056 0.085131355
000380 d2 a9 29 3d e8 78 65 bd 00 2e 7d bb ff 83 9c 3d
       0.04142172 -0.05602351 -0.0038632154 0.07642364
000390 68 a6 39 bc b0 26 7c bd e4 a5 82 bc 9f 74 95 3d
       -0.011331178 -0.061560333 -0.015948243 0.07297634
0003a0 c2 31 21 3d 63 b6 27 bd 23 7a 45 bd 01 c2 8f 3d
       0.039354093 -0.040945422 -0.04821218 0.07019425
0003b0 78 6d 18 3d ed 37 af 3d 57 cc 8f 3d 93 e3 9a bd
       0.037213773 0.08555589 0.070213966 -0.075629376
0003c0 5e 5c de bc fa ee 08 bd 42 b4 0b 3d c8 0f 7c bd
       -0.027143653 -0.03343103 0.034107454 -0.061538488
0003d0 98 7a bd bc 68 0f 6c bc 38 4c 69 3c 9e 9c 05 3d
       -0.023129746 -0.01440797 0.014239363 0.032620065
0003e0 87 2f 94 bd 7a 71 28 3d 84 22 00 3d e0 63 0c 3d
       -0.072356276 0.041123845 0.031282917 0.034274936
0003f0 de 00 34 3d 40 89 72 bb d0 b9 1d 3c 90 3f ec 3b
       0.04394614 -0.0037008077 0.009626821 0.0072097257

B f4 [10]
000000 cd 5e d8 be 7c 68 ce 3e a0 41 cf 3d dd 78 9c be
       -0.42259827 0.4031409 0.10119939 -0.3056096
000010 6c 63 85 3c 4c 75 c2 3f 67 ff 03 be f4 5d 3d 3f
       0.01628276 1.5192046 -0.12890397 0.73971486
000020 91 4e d1 bf 4f 0f 93 be
       -1.6352102 -0.28722617
